…
W0601 11:39:36.590209  9586 _caffe.cpp:140] Use this instead (with the named "weights" parameter):
W0601 11:39:36.590214  9586 _caffe.cpp:142] Net('/home/caffe/models/bvlc_reference_caffenet/deploy.prototxt', 1, weights='/home/caffe/models/bvlc_reference_caffenet/bvlc_reference_caffenet.caffemodel')
I0601 11:39:36.591955  9586 net.cpp:51] Initializing net from parameters: 
name: "CaffeNet"
state {
  phase: TEST
  level: 0
}
layer {
  name: "data"
  type: "Input"
  top: "data"
  input_param {
    shape {
      dim: 10
      dim: 3
      dim: 227
      dim: 227
    }
  }
}
layer {
  name: "conv1"
  type: "Convolution"
  bottom: "data"
  top: "conv1"
  convolution_param {
    num_output: 96
    kernel_size: 11
    stride: 4
  }
}
layer {
  name: "relu1"
  type: "ReLU"
  bottom: "conv1"
  top: "conv1"
}
layer {
  name: "pool1"
  type: "Pooling"
  bottom: "conv1"
  top: "pool1"
  pooling_param {
    pool: MAX
    kernel_size: 3
    stride: 2
  }
}
layer {
  name: "norm1"
  type: "LRN"
  bottom: "pool1"
  top: "norm1"
  lrn_param {
    local_size: 5
    alpha: 0.0001
    beta: 0.75
  }
}
layer {
  name: "conv2"
  type: "Convolution"
  bottom: "norm1"
  top: "conv2"
  convolution_param {
    num_output: 256
    pad: 2
    kernel_size: 5
    group: 2
  }
}
layer {
  name: "relu2"
  type: "ReLU"
  bottom: "conv2"
  top: "conv2"
}
layer {
  name: "pool2"
  type: "Pooling"
  bottom: "conv2"
  top: "pool2"
  pooling_param {
    pool: MAX
    kernel_size: 3
    stride: 2
  }
}
layer {
  name: "norm2"
  type: "LRN"
  bottom: "pool2"
  top: "norm2"
  lrn_param {
    local_size: 5
    alpha: 0.0001
    beta: 0.75
  }
}
layer {
  name: "conv3"
  type: "Convolution"
  bottom: "norm2"
  top: "conv3"
  convolution_param {
    num_output: 384
    pad: 1
    kernel_size: 3
  }
}
layer {
  name: "relu3"
  type: "ReLU"
  bottom: "conv3"
  top: "conv3"
}
layer {
  name: "conv4"
  type: "Convolution"
  bottom: "conv3"
  top: "conv4"
  convolution_param {
    num_output: 384
    pad: 1
    kernel_size: 3
    group: 2
  }
}
layer {
  name: "relu4"
  type: "ReLU"
  bottom: "conv4"
  top: "conv4"
}
layer {
  name: "conv5"
  type: "Convolution"
  bottom: "conv4"
  top: "conv5"
  convolution_param {
    num_output: 256
    pad: 1
    kernel_size: 3
    group: 2
  }
}
layer {
  name: "relu5"
  type: "ReLU"
  bottom: "conv5"
  top: "conv5"
}
layer {
  name: "pool5"
  type: "Pooling"
  bottom: "conv5"
  top: "pool5"
  pooling_param {
    pool: MAX
    kernel_size: 3
    stride: 2
  }
}
layer {
  name: "fc6"
  type: "InnerProduct"
  bottom: "pool5"
  top: "fc6"
  inner_product_param {
    num_output: 4096
  }
}
layer {
  name: "relu6"
  type: "ReLU"
  bottom: "fc6"
  top: "fc6"
}
layer {
  name: "drop6"
  type: "Dropout"
  bottom: "fc6"
  top: "fc6"
  dropout_param {
    dropout_ratio: 0.5
  }
}
layer {
  name: "fc7"
  type: "InnerProduct"
  bottom: "fc6"
  top: "fc7"
  inner_product_param {
    num_output: 4096
  }
}
layer {
  name: "relu7"
  type: "ReLU"
  bottom: "fc7"
  top: "fc7"
}
layer {
  name: "drop7"
  type: "Dropout"
  bottom: "fc7"
  top: "fc7"
  dropout_param {
    dropout_ratio: 0.5
  }
}
layer {
  name: "fc8"
  type: "InnerProduct"
  bottom: "fc7"
  top: "fc8"
  inner_product_param {
    num_output: 1000
  }
}
layer {
  name: "prob"
  type: "Softmax"
  bottom: "fc8"
  top: "prob"
}
I0601 11:39:36.592025  9586 layer_factory.hpp:77] Creating layer data
I0601 11:39:36.592041  9586 net.cpp:84] Creating Layer data
I0601 11:39:36.592047  9586 net.cpp:380] data -> data
I0601 11:39:36.592067  9586 net.cpp:122] Setting up data
I0601 11:39:36.592077  9586 net.cpp:129] Top shape: 10 3 227 227 (1545870)
I0601 11:39:36.592080  9586 net.cpp:137] Memory required for data: 6183480
I0601 11:39:36.592084  9586 layer_factory.hpp:77] Creating layer conv1
I0601 11:39:36.592093  9586 net.cpp:84] Creating Layer conv1
I0601 11:39:36.592098  9586 net.cpp:406] conv1 <- data
I0601 11:39:36.592104  9586 net.cpp:380] conv1 -> conv1
I0601 11:39:36.592238  9586 net.cpp:122] Setting up conv1
I0601 11:39:36.592250  9586 net.cpp:129] Top shape: 10 96 55 55 (2904000)
I0601 11:39:36.592254  9586 net.cpp:137] Memory required for data: 17799480
I0601 11:39:36.592267  9586 layer_factory.hpp:77] Creating layer relu1
I0601 11:39:36.592274  9586 net.cpp:84] Creating Layer relu1
I0601 11:39:36.592279  9586 net.cpp:406] relu1 <- conv1
I0601 11:39:36.592284  9586 net.cpp:367] relu1 -> conv1 (in-place)
I0601 11:39:36.592291  9586 net.cpp:122] Setting up relu1
I0601 11:39:36.592298  9586 net.cpp:129] Top shape: 10 96 55 55 (2904000)
I0601 11:39:36.592301  9586 net.cpp:137] Memory required for data: 29415480
I0601 11:39:36.592304  9586 layer_factory.hpp:77] Creating layer pool1
I0601 11:39:36.592310  9586 net.cpp:84] Creating Layer pool1
I0601 11:39:36.592314  9586 net.cpp:406] pool1 <- conv1
I0601 11:39:36.592320  9586 net.cpp:380] pool1 -> pool1
I0601 11:39:36.592330  9586 net.cpp:122] Setting up pool1
I0601 11:39:36.592336  9586 net.cpp:129] Top shape: 10 96 27 27 (699840)
I0601 11:39:36.592340  9586 net.cpp:137] Memory required for data: 32214840
I0601 11:39:36.592344  9586 layer_factory.hpp:77] Creating layer norm1
I0601 11:39:36.592350  9586 net.cpp:84] Creating Layer norm1
I0601 11:39:36.592355  9586 net.cpp:406] norm1 <- pool1
I0601 11:39:36.592360  9586 net.cpp:380] norm1 -> norm1
I0601 11:39:36.592368  9586 net.cpp:122] Setting up norm1
I0601 11:39:36.592375  9586 net.cpp:129] Top shape: 10 96 27 27 (699840)
I0601 11:39:36.592378  9586 net.cpp:137] Memory required for data: 35014200
I0601 11:39:36.592381  9586 layer_factory.hpp:77] Creating layer conv2
I0601 11:39:36.592388  9586 net.cpp:84] Creating Layer conv2
I0601 11:39:36.592392  9586 net.cpp:406] conv2 <- norm1
I0601 11:39:36.592398  9586 net.cpp:380] conv2 -> conv2
I0601 11:39:36.593130  9586 net.cpp:122] Setting up conv2
I0601 11:39:36.593143  9586 net.cpp:129] Top shape: 10 256 27 27 (1866240)
I0601 11:39:36.593147  9586 net.cpp:137] Memory required for data: 42479160
I0601 11:39:36.593156  9586 layer_factory.hpp:77] Creating layer relu2
I0601 11:39:36.593163  9586 net.cpp:84] Creating Layer relu2
I0601 11:39:36.593166  9586 net.cpp:406] relu2 <- conv2
I0601 11:39:36.593173  9586 net.cpp:367] relu2 -> conv2 (in-place)
I0601 11:39:36.593178  9586 net.cpp:122] Setting up relu2
I0601 11:39:36.593184  9586 net.cpp:129] Top shape: 10 256 27 27 (1866240)
I0601 11:39:36.593188  9586 net.cpp:137] Memory required for data: 49944120
I0601 11:39:36.593191  9586 layer_factory.hpp:77] Creating layer pool2
I0601 11:39:36.593196  9586 net.cpp:84] Creating Layer pool2
I0601 11:39:36.593200  9586 net.cpp:406] pool2 <- conv2
I0601 11:39:36.593205  9586 net.cpp:380] pool2 -> pool2
I0601 11:39:36.593214  9586 net.cpp:122] Setting up pool2
I0601 11:39:36.593219  9586 net.cpp:129] Top shape: 10 256 13 13 (432640)
I0601 11:39:36.593224  9586 net.cpp:137] Memory required for data: 51674680
I0601 11:39:36.593226  9586 layer_factory.hpp:77] Creating layer norm2
I0601 11:39:36.593233  9586 net.cpp:84] Creating Layer norm2
I0601 11:39:36.593237  9586 net.cpp:406] norm2 <- pool2
I0601 11:39:36.593242  9586 net.cpp:380] norm2 -> norm2
I0601 11:39:36.593250  9586 net.cpp:122] Setting up norm2
I0601 11:39:36.593255  9586 net.cpp:129] Top shape: 10 256 13 13 (432640)
I0601 11:39:36.593260  9586 net.cpp:137] Memory required for data: 53405240
I0601 11:39:36.593262  9586 layer_factory.hpp:77] Creating layer conv3
I0601 11:39:36.593269  9586 net.cpp:84] Creating Layer conv3
I0601 11:39:36.593272  9586 net.cpp:406] conv3 <- norm2
I0601 11:39:36.593277  9586 net.cpp:380] conv3 -> conv3
I0601 11:39:36.595361  9586 net.cpp:122] Setting up conv3
I0601 11:39:36.595376  9586 net.cpp:129] Top shape: 10 384 13 13 (648960)
I0601 11:39:36.595379  9586 net.cpp:137] Memory required for data: 56001080
I0601 11:39:36.595391  9586 layer_factory.hpp:77] Creating layer relu3
I0601 11:39:36.595397  9586 net.cpp:84] Creating Layer relu3
I0601 11:39:36.595402  9586 net.cpp:406] relu3 <- conv3
I0601 11:39:36.595407  9586 net.cpp:367] relu3 -> conv3 (in-place)
I0601 11:39:36.595419  9586 net.cpp:122] Setting up relu3
I0601 11:39:36.595425  9586 net.cpp:129] Top shape: 10 384 13 13 (648960)
I0601 11:39:36.595428  9586 net.cpp:137] Memory required for data: 58596920
I0601 11:39:36.595432  9586 layer_factory.hpp:77] Creating layer conv4
I0601 11:39:36.595443  9586 net.cpp:84] Creating Layer conv4
I0601 11:39:36.595446  9586 net.cpp:406] conv4 <- conv3
I0601 11:39:36.595451  9586 net.cpp:380] conv4 -> conv4
I0601 11:39:36.597002  9586 net.cpp:122] Setting up conv4
I0601 11:39:36.597017  9586 net.cpp:129] Top shape: 10 384 13 13 (648960)
I0601 11:39:36.597020  9586 net.cpp:137] Memory required for data: 61192760
I0601 11:39:36.597028  9586 layer_factory.hpp:77] Creating layer relu4
I0601 11:39:36.597033  9586 net.cpp:84] Creating Layer relu4
I0601 11:39:36.597038  9586 net.cpp:406] relu4 <- conv4
I0601 11:39:36.597043  9586 net.cpp:367] relu4 -> conv4 (in-place)
I0601 11:39:36.597049  9586 net.cpp:122] Setting up relu4
I0601 11:39:36.597054  9586 net.cpp:129] Top shape: 10 384 13 13 (648960)
I0601 11:39:36.597057  9586 net.cpp:137] Memory required for data: 63788600
I0601 11:39:36.597061  9586 layer_factory.hpp:77] Creating layer conv5
I0601 11:39:36.597069  9586 net.cpp:84] Creating Layer conv5
I0601 11:39:36.597074  9586 net.cpp:406] conv5 <- conv4
I0601 11:39:36.597079  9586 net.cpp:380] conv5 -> conv5
I0601 11:39:36.598115  9586 net.cpp:122] Setting up conv5
I0601 11:39:36.598127  9586 net.cpp:129] Top shape: 10 256 13 13 (432640)
I0601 11:39:36.598131  9586 net.cpp:137] Memory required for data: 65519160
I0601 11:39:36.598140  9586 layer_factory.hpp:77] Creating layer relu5
I0601 11:39:36.598146  9586 net.cpp:84] Creating Layer relu5
I0601 11:39:36.598150  9586 net.cpp:406] relu5 <- conv5
I0601 11:39:36.598160  9586 net.cpp:367] relu5 -> conv5 (in-place)
I0601 11:39:36.598166  9586 net.cpp:122] Setting up relu5
I0601 11:39:36.598171  9586 net.cpp:129] Top shape: 10 256 13 13 (432640)
I0601 11:39:36.598175  9586 net.cpp:137] Memory required for data: 67249720
I0601 11:39:36.598178  9586 layer_factory.hpp:77] Creating layer pool5
I0601 11:39:36.598183  9586 net.cpp:84] Creating Layer pool5
I0601 11:39:36.598187  9586 net.cpp:406] pool5 <- conv5
I0601 11:39:36.598194  9586 net.cpp:380] pool5 -> pool5
I0601 11:39:36.598203  9586 net.cpp:122] Setting up pool5
I0601 11:39:36.598209  9586 net.cpp:129] Top shape: 10 256 6 6 (92160)
I0601 11:39:36.598213  9586 net.cpp:137] Memory required for data: 67618360
I0601 11:39:36.598217  9586 layer_factory.hpp:77] Creating layer fc6
I0601 11:39:36.598225  9586 net.cpp:84] Creating Layer fc6
I0601 11:39:36.598229  9586 net.cpp:406] fc6 <- pool5
I0601 11:39:36.598235  9586 net.cpp:380] fc6 -> fc6
I0601 11:39:36.686978  9586 net.cpp:122] Setting up fc6
I0601 11:39:36.687019  9586 net.cpp:129] Top shape: 10 4096 (40960)
I0601 11:39:36.687023  9586 net.cpp:137] Memory required for data: 67782200
I0601 11:39:36.687034  9586 layer_factory.hpp:77] Creating layer relu6
I0601 11:39:36.687047  9586 net.cpp:84] Creating Layer relu6
I0601 11:39:36.687052  9586 net.cpp:406] relu6 <- fc6
I0601 11:39:36.687058  9586 net.cpp:367] relu6 -> fc6 (in-place)
I0601 11:39:36.687067  9586 net.cpp:122] Setting up relu6
I0601 11:39:36.687072  9586 net.cpp:129] Top shape: 10 4096 (40960)
I0601 11:39:36.687077  9586 net.cpp:137] Memory required for data: 67946040
I0601 11:39:36.687079  9586 layer_factory.hpp:77] Creating layer drop6
I0601 11:39:36.687089  9586 net.cpp:84] Creating Layer drop6
I0601 11:39:36.687094  9586 net.cpp:406] drop6 <- fc6
I0601 11:39:36.687098  9586 net.cpp:367] drop6 -> fc6 (in-place)
I0601 11:39:36.687106  9586 net.cpp:122] Setting up drop6
I0601 11:39:36.687111  9586 net.cpp:129] Top shape: 10 4096 (40960)
I0601 11:39:36.687115  9586 net.cpp:137] Memory required for data: 68109880
I0601 11:39:36.687119  9586 layer_factory.hpp:77] Creating layer fc7
I0601 11:39:36.687125  9586 net.cpp:84] Creating Layer fc7
I0601 11:39:36.687129  9586 net.cpp:406] fc7 <- fc6
I0601 11:39:36.687135  9586 net.cpp:380] fc7 -> fc7
I0601 11:39:36.726816  9586 net.cpp:122] Setting up fc7
I0601 11:39:36.726861  9586 net.cpp:129] Top shape: 10 4096 (40960)
I0601 11:39:36.726866  9586 net.cpp:137] Memory required for data: 68273720
I0601 11:39:36.726877  9586 layer_factory.hpp:77] Creating layer relu7
I0601 11:39:36.726891  9586 net.cpp:84] Creating Layer relu7
I0601 11:39:36.726897  9586 net.cpp:406] relu7 <- fc7
I0601 11:39:36.726904  9586 net.cpp:367] relu7 -> fc7 (in-place)
I0601 11:39:36.726913  9586 net.cpp:122] Setting up relu7
I0601 11:39:36.726918  9586 net.cpp:129] Top shape: 10 4096 (40960)
I0601 11:39:36.726922  9586 net.cpp:137] Memory required for data: 68437560
I0601 11:39:36.726925  9586 layer_factory.hpp:77] Creating layer drop7
I0601 11:39:36.726934  9586 net.cpp:84] Creating Layer drop7
I0601 11:39:36.726938  9586 net.cpp:406] drop7 <- fc7
I0601 11:39:36.726943  9586 net.cpp:367] drop7 -> fc7 (in-place)
I0601 11:39:36.726950  9586 net.cpp:122] Setting up drop7
I0601 11:39:36.726955  9586 net.cpp:129] Top shape: 10 4096 (40960)
I0601 11:39:36.726958  9586 net.cpp:137] Memory required for data: 68601400
I0601 11:39:36.726963  9586 layer_factory.hpp:77] Creating layer fc8
I0601 11:39:36.726969  9586 net.cpp:84] Creating Layer fc8
I0601 11:39:36.726972  9586 net.cpp:406] fc8 <- fc7
I0601 11:39:36.726980  9586 net.cpp:380] fc8 -> fc8
I0601 11:39:36.736402  9586 net.cpp:122] Setting up fc8
I0601 11:39:36.736418  9586 net.cpp:129] Top shape: 10 1000 (10000)
I0601 11:39:36.736421  9586 net.cpp:137] Memory required for data: 68641400
I0601 11:39:36.736430  9586 layer_factory.hpp:77] Creating layer prob
I0601 11:39:36.736438  9586 net.cpp:84] Creating Layer prob
I0601 11:39:36.736443  9586 net.cpp:406] prob <- fc8
I0601 11:39:36.736449  9586 net.cpp:380] prob -> prob
I0601 11:39:36.736464  9586 net.cpp:122] Setting up prob
I0601 11:39:36.736469  9586 net.cpp:129] Top shape: 10 1000 (10000)
I0601 11:39:36.736474  9586 net.cpp:137] Memory required for data: 68681400
I0601 11:39:36.736477  9586 net.cpp:200] prob does not need backward computation.
I0601 11:39:36.736481  9586 net.cpp:200] fc8 does not need backward computation.
I0601 11:39:36.736485  9586 net.cpp:200] drop7 does not need backward computation.
I0601 11:39:36.736490  9586 net.cpp:200] relu7 does not need backward computation.
…
